…
Warning: module Mlp is treated as a zero-op.
Warning: module MambaVisionMixer is treated as a zero-op.
Warning: module h_sigmoid is treated as a zero-op.
Warning: module h_swish is treated as a zero-op.
Warning: module SELayer is treated as a zero-op.
Warning: module LocalityFeedForward is treated as a zero-op.
Warning: module CrossAttention is treated as a zero-op.
Warning: module Block is treated as a zero-op.
Warning: module LocalViT_TNT is treated as a zero-op.
LocalViT_TNT(
  8.55 M, 99.104% Params, 1.71 GMac, 99.815% MACs, 
  (pixel_embed): PixelEmbed(
    1.78 k, 0.021% Params, 1.39 MMac, 0.081% MACs, 
    (proj): Conv2d(1.78 k, 0.021% Params, 1.39 MMac, 0.081% MACs, 3, 12, kernel_size=(7, 7), stride=(8, 8), padding=(3, 3))
    (unfold): Unfold(0, 0.000% Params, 0.0 Mac, 0.000% MACs, kernel_size=2, dilation=1, padding=0, stride=2)
  )
  (norm1_proj): LayerNorm(96, 0.001% Params, 9.41 KMac, 0.001% MACs, (48,), eps=1e-05, elementwise_affine=True)
  (proj): Linear(9.41 k, 0.109% Params, 1.84 MMac, 0.108% MACs, in_features=48, out_features=192, bias=True)
  (norm2_proj): LayerNorm(384, 0.004% Params, 37.63 KMac, 0.002% MACs, (192,), eps=1e-05, elementwise_affine=True)
  (pos_drop): Dropout(0, 0.000% Params, 0.0 Mac, 0.000% MACs, p=0.0, inplace=False)
  (blocks): ModuleList(
    (0-11): 12 x Block(
      710.56 k, 8.239% Params, 142.17 MMac, 8.302% MACs, 
      (norm_in): LayerNorm(24, 0.000% Params, 9.41 KMac, 0.001% MACs, (12,), eps=1e-05, elementwise_affine=True)
      (attn_in): Attention(
        588, 0.007% Params, 460.99 KMac, 0.027% MACs, 
        (qk): Linear(288, 0.003% Params, 225.79 KMac, 0.013% MACs, in_features=12, out_features=24, bias=False)
        (v): Linear(144, 0.002% Params, 112.9 KMac, 0.007% MACs, in_features=12, out_features=12, bias=False)
        (attn_drop): Dropout(0, 0.000% Params, 0.0 Mac, 0.000% MACs, p=0.0, inplace=True)
        (proj): Linear(156, 0.002% Params, 122.3 KMac, 0.007% MACs, in_features=12, out_features=12, bias=True)
        (proj_drop): Dropout(0, 0.000% Params, 0.0 Mac, 0.000% MACs, p=0.0, inplace=True)
      )
      (norm_mlp_in): LayerNorm(24, 0.000% Params, 9.41 KMac, 0.001% MACs, (12,), eps=1e-05, elementwise_affine=True)
      (mlp_in): Mlp(
        1.21 k, 0.014% Params, 987.84 KMac, 0.058% MACs, 
        (fc1): Linear(624, 0.007% Params, 489.22 KMac, 0.029% MACs, in_features=12, out_features=48, bias=True)
        (act): GELU(0, 0.000% Params, 37.63 KMac, 0.002% MACs, approximate='none')
        (drop1): Dropout(0, 0.000% Params, 0.0 Mac, 0.000% MACs, p=0.0, inplace=False)
        (norm): Identity(0, 0.000% Params, 0.0 Mac, 0.000% MACs, )
        (fc2): Linear(588, 0.007% Params, 460.99 KMac, 0.027% MACs, in_features=48, out_features=12, bias=True)
        (drop2): Dropout(0, 0.000% Params, 0.0 Mac, 0.000% MACs, p=0.0, inplace=False)
      )
      (norm1_proj): LayerNorm(24, 0.000% Params, 9.41 KMac, 0.001% MACs, (12,), eps=1e-05, elementwise_affine=True)
      (proj): Linear(9.41 k, 0.109% Params, 1.84 MMac, 0.108% MACs, in_features=48, out_features=192, bias=True)
      (norm_mamba): LayerNorm(384, 0.004% Params, 37.82 KMac, 0.002% MACs, (192,), eps=1e-05, elementwise_affine=True)
      (mamba_mixer): MambaVisionMixer(
        159.94 k, 1.854% Params, 31.2 MMac, 1.822% MACs, 
        (in_proj): Linear(73.73 k, 0.855% Params, 14.52 MMac, 0.848% MACs, in_features=192, out_features=384, bias=False)
        (x_proj): Linear(8.45 k, 0.098% Params, 1.66 MMac, 0.097% MACs, in_features=192, out_features=44, bias=False)
        (dt_proj): Linear(2.5 k, 0.029% Params, 491.71 KMac, 0.029% MACs, in_features=12, out_features=192, bias=True)
        (out_proj): Linear(73.73 k, 0.855% Params, 14.52 MMac, 0.848% MACs, in_features=384, out_features=192, bias=False)
        (conv1d_x): Conv1d(768, 0.009% Params, 0.0 Mac, 0.000% MACs, 192, 192, kernel_size=(4,), stride=(1,), groups=192, bias=False)
        (conv1d_z): Conv1d(768, 0.009% Params, 0.0 Mac, 0.000% MACs, 192, 192, kernel_size=(4,), stride=(1,), groups=192, bias=False)
      )
      (norm_out): LayerNorm(384, 0.004% Params, 37.82 KMac, 0.002% MACs, (192,), eps=1e-05, elementwise_affine=True)
      (attn_out): Attention(
        147.65 k, 1.712% Params, 29.09 MMac, 1.698% MACs, 
        (qk): Linear(73.73 k, 0.855% Params, 14.52 MMac, 0.848% MACs, in_features=192, out_features=384, bias=False)
        (v): Linear(36.86 k, 0.427% Params, 7.26 MMac, 0.424% MACs, in_features=192, out_features=192, bias=False)
        (attn_drop): Dropout(0, 0.000% Params, 0.0 Mac, 0.000% MACs, p=0.0, inplace=True)
        (proj): Linear(37.06 k, 0.430% Params, 7.3 MMac, 0.426% MACs, in_features=192, out_features=192, bias=True)
        (proj_drop): Dropout(0, 0.000% Params, 0.0 Mac, 0.000% MACs, p=0.0, inplace=True)
      )
      (norm_conv): LayerNorm(384, 0.004% Params, 37.63 KMac, 0.002% MACs, (192,), eps=1e-05, elementwise_affine=True)
      (conv): LocalityFeedForward(
        312.2 k, 3.620% Params, 60.29 MMac, 3.521% MACs, 
        (conv): Sequential(
          312.2 k, 3.620% Params, 60.29 MMac, 3.521% MACs, 
          (0): Conv2d(147.46 k, 1.710% Params, 28.9 MMac, 1.688% MACs, 192, 768, kernel_size=(1, 1), stride=(1, 1), bias=False)
          (1): BatchNorm2d(1.54 k, 0.018% Params, 301.06 KMac, 0.018% MACs, 768, eps=1e-05, momentum=0.1, affine=True, track_running_stats=True)
          (2): h_swish(
            0, 0.000% Params, 150.53 KMac, 0.009% MACs, 
            (sigmoid): h_sigmoid(
              0, 0.000% Params, 150.53 KMac, 0.009% MACs, 
              (relu): ReLU6(0, 0.000% Params, 150.53 KMac, 0.009% MACs, inplace=True)
            )
          )
          (3): Conv2d(6.91 k, 0.080% Params, 1.35 MMac, 0.079% MACs, 768, 768, kernel_size=(3, 3), stride=(1, 1), padding=(1, 1), groups=768, bias=False)
          (4): BatchNorm2d(1.54 k, 0.018% Params, 301.06 KMac, 0.018% MACs, 768, eps=1e-05, momentum=0.1, affine=True, track_running_stats=True)
          (5): h_swish(
            0, 0.000% Params, 150.53 KMac, 0.009% MACs, 
            (sigmoid): h_sigmoid(
              0, 0.000% Params, 150.53 KMac, 0.009% MACs, 
              (relu): ReLU6(0, 0.000% Params, 150.53 KMac, 0.009% MACs, inplace=True)
            )
          )
          (6): SELayer(
            6.92 k, 0.080% Params, 158.22 KMac, 0.009% MACs, 
            (avg_pool): AdaptiveAvgPool2d(0, 0.000% Params, 150.53 KMac, 0.009% MACs, output_size=1)
            (fc): Sequential(
              6.92 k, 0.080% Params, 7.69 KMac, 0.000% MACs, 
              (0): Linear(3.08 k, 0.036% Params, 3.08 KMac, 0.000% MACs, in_features=768, out_features=4, bias=True)
              (1): ReLU(0, 0.000% Params, 4.0 Mac, 0.000% MACs, inplace=True)
              (2): Linear(3.84 k, 0.045% Params, 3.84 KMac, 0.000% MACs, in_features=4, out_features=768, bias=True)
              (3): h_sigmoid(
                0, 0.000% Params, 768.0 Mac, 0.000% MACs, 
                (relu): ReLU6(0, 0.000% Params, 768.0 Mac, 0.000% MACs, inplace=True)
              )
            )
          )
          (7): Conv2d(147.46 k, 1.710% Params, 28.9 MMac, 1.688% MACs, 768, 192, kernel_size=(1, 1), stride=(1, 1), bias=False)
          (8): BatchNorm2d(384, 0.004% Params, 75.26 KMac, 0.004% MACs, 192, eps=1e-05, momentum=0.1, affine=True, track_running_stats=True)
        )
      )
      (drop_path): Identity(0, 0.000% Params, 0.0 Mac, 0.000% MACs, )
      (cross_attn): CrossAttention(
        78.35 k, 0.908% Params, 18.15 MMac, 1.060% MACs, 
        (to_q): Linear(2.3 k, 0.027% Params, 1.81 MMac, 0.105% MACs, in_features=12, out_features=192, bias=False)
        (to_k): Linear(36.86 k, 0.427% Params, 7.26 MMac, 0.424% MACs, in_features=192, out_features=192, bias=False)
        (to_v): Linear(36.86 k, 0.427% Params, 7.26 MMac, 0.424% MACs, in_features=192, out_features=192, bias=False)
        (to_out): Sequential(
          2.32 k, 0.027% Params, 1.82 MMac, 0.106% MACs, 
          (0): Linear(2.32 k, 0.027% Params, 1.82 MMac, 0.106% MACs, in_features=192, out_features=12, bias=True)
          (1): Dropout(0, 0.000% Params, 0.0 Mac, 0.000% MACs, p=0.0, inplace=False)
        )
      )
    )
  )
  (norm): LayerNorm(384, 0.004% Params, 37.82 KMac, 0.002% MACs, (192,), eps=1e-05, elementwise_affine=True)
  (head): Linear(8.3 k, 0.096% Params, 8.3 KMac, 0.000% MACs, in_features=192, out_features=43, bias=True)
)
Computational complexity:       1.71 GMac
Number of parameters:           8.62 M  

Process finished with exit code 0





/home/ai1/anaconda3/envs/thai/bin/python /home/ai1/ThaiLQ/Locality-iN-Locality/train_LiL.py 
PyTorch 2.6.0+cu124
Torchvision 0.21.0+cu124
Torchattacks 3.5.1
Numpy 2.2.3
------------------------------------------------
…
